ckpt/Encoder.pth (torch_old, 482224 bytes, 15 tensors)

conv1.weight f4 [50, 128]
0	0xbe597f0a	-0.21239868
1	0xbd064be6	-0.032787226
2	0xbd67272d	-0.056433845
3	0xbd63574e	-0.055503182
4	0xbe3c04a7	-0.1836115
5	0xbe01bb94	-0.12669212
6	0xbd248b60	-0.04017198
7	0x3d5e6bea	0.054302134
8	0xbd814df4	-0.063136965
9	0x3df3e146	0.11908202
10	0x3d53d7ea	0.051719584
11	0x3db58eac	0.08865103
12	0xbe03f886	-0.12887773
13	0x3da39633	0.079876326
14	0xbc6d26d7	-0.014474592
15	0xbae0dfbf	-0.0017156525
16	0xbcaf6c35	-0.021413902
17	0x3e0ba5a4	0.13637406
18	0xbc97d163	-0.01853246
19	0x3dd3ec8a	0.103478506
20	0xbe5c9585	-0.21541412
21	0x3ba5b691	0.005057164
22	0x39806700	0.00024490803
23	0x3d9ab2fb	0.07553669
24	0xbda621fb	-0.0811195
25	0xbe2cc404	-0.16871649
26	0xbe30e256	-0.1727384
27	0x3de9bb50	0.1141268
28	0x3e096d02	0.1342049
29	0xbb0a05d0	-0.0021060593
30	0xbe1f02cf	-0.15528415
31	0x3d911099	0.07083244
32	0x3d287983	0.041131508
33	0xbb1e1381	-0.0024120512
34	0x3d5ebf5d	0.054381717
35	0x3d9b73f2	0.07590474
36	0xbe1c3943	-0.15256219
37	0xbdce19ab	-0.100634895
38	0xbd32ce81	-0.04365397
39	0x3d2134a8	0.039356858
40	0x3dc28c92	0.09499468
41	0x3d5e08a4	0.05420746
42	0xbcc44d17	-0.02396254
43	0x3df2a848	0.11848503
44	0x3d92296d	0.071368076
45	0xbd73763f	-0.05943894
46	0x3a9892f8	0.001164048
47	0xbdc2bd9a	-0.0950882
48	0xbc96e647	-0.018420352
49	0xbdec7dc5	-0.11547426
50	0xbd459ea5	-0.048247
51	0x3dbfdaa4	0.09367874
52	0x3d061bc8	0.032741338
53	0x3d9e3591	0.07725061
54	0x3deed88f	0.11662399
55	0x3cb083f1	0.02154729
56	0x3db7b8b2	0.08970775
57	0xbd07f6e5	-0.03319444
58	0xbda260f6	-0.0792865
59	0x3da58589	0.080821104
60	0x3c8fcdd5	0.017554203
61	0xbe46dad4	-0.19419414
62	0xbe8dcc9a	-0.2769516
63	0x3ca4b41d	0.020105416
64	0x3dd81b51	0.10552085
65	0x3da9d155	0.0829188
66	0xbd9bbed6	-0.076047584
67	0x3dc234e1	0.09482742
68	0x3db52f1c	0.08846876
69	0xbd36682f	-0.04453295
70	0x3d2b16c7	0.04176977
71	0xbd82d25c	-0.06387779
72	0xbc3ecebc	-0.011645969
73	0x3d9b37bb	0.07578989
74	0xbe155900	-0.14584732
75	0xbcda16b3	-0.026622152
76	0x3d14bd76	0.036313497
77	0x3db83866	0.08995132
78	0x3d8ab853	0.06773438
79	0x3dba7e27	0.09106093
80	0xbe35a53b	-0.17738812
81	0x3dc41f07	0.095762305
82	0x3e068586	0.13136873
83	0x3cdf200a	0.027236957
84	0xbd868d56	-0.065699264
85	0xbcc178db	-0.023617199
86	0x3dc40f00	0.095731735
87	0x3ca5ec02	0.020254139
88	0x3d9ae33a	0.07562871
89	0xbd58f346	-0.05296638
90	0x3e048654	0.12941867
91	0x3dd5fd47	0.104486994
92	0xbd20e19f	-0.03927767
93	0x3e1999d4	0.15000087
94	0xbdb5b5b8	-0.08872551
95	0x3db954e5	0.090493955
96	0xbcda6a9a	-0.02666216
97	0xbe5bf9c3	-0.21481995
98	0x3c5d6b90	0.013514414
99	0x3bd19196	0.006395529
100	0xbcf8000c	-0.03027346
101	0x3c56c0ef	0.013107522
102	0xbdeb71db	-0.114963256
103	0x3df39b95	0.11894909
104	0xbd6a0195	-0.057130415
105	0xbe227e99	-0.15868606
106	0x3e4f3a6c	0.2023713
107	0x3d307bdc	0.04308687
108	0xbdff023a	-0.124515966
109	0x3b223aec	0.0024754358
110	0xbdfd098d	-0.12355337
111	0x3db8e867	0.09028702
112	0x3d810610	0.062999845
113	0x3dcabba2	0.09899069
114	0xbc217e9e	-0.009856848
115	0xbd6919c6	-0.056909345
116	0x3a2296a3	0.0006202256
117	0x3bf425ca	0.007450794
118	0x3dc14d30	0.094385505
119	0x3d3bf03a	0.045883395
120	0x3e11b637	0.14229666
121	0x3d87c026	0.06628446
122	0xbafa7882	-0.00191094
123	0xbe3a938b	-0.18220346
124	0x3cfab6ed	0.030604804
125	0x3e00efd2	0.12591484
126	0xbdad252f	-0.08454358
127	0xbd85e141	-0.065371044
128	0xbcfa44ae	-0.030550327
129	0x3dc14482	0.09436895
130	0x3b9d148e	0.00479371
131	0x3b42bd6f	0.0029714962
132	0x3db3a608	0.08771902
133	0xbcfc0324	-0.030763216
134	0xbc3ac451	-0.011399345
135	0x3db32c34	0.087486655
136	0x3d33223d	0.043733824
137	0xbbb0552b	-0.0053812466
138	0xbe5fdd78	-0.21861827
139	0x3dd20d77	0.102564745
140	0x3d6c6295	0.057711203
141	0xbdf7f44b	-0.12107142
142	0xbdb07185	-0.08615402
143	0x3d8f09bc	0.069842786
144	0x3d91ad0e	0.07113086
145	0x3ded2f25	0.11581258
146	0x3d52b6e8	0.051443964
147	0xbda15476	-0.07877438
148	0xbd75bbf5	-0.059993703
149	0x3e23600c	0.15954608
150	0xbd48874f	-0.048957165
151	0xbe0dc344	-0.13844019
152	0xbd290618	-0.041265577
153	0x3cbf3cb1	0.02334437
154	0xbd720ea9	-0.059096012
155	0xbc92d168	-0.017922118
156	0xbe75d767	-0.2400795
157	0xbcd1c862	-0.025608245
158	0xbe609031	-0.21930005
159	0xbd90c845	-0.070694484
160	0xbdd09b08	-0.1018582
161	0xbe53eb05	-0.20695122
162	0x3d905550	0.07047522
163	0xbe4c52e1	-0.19953491
164	0x3c854b21	0.016271176
165	0xbda37c37	-0.079826765
166	0xbd91ebf7	-0.07125085
167	0xbdffa0c0	-0.124818325
168	0x3d24e80d	0.040260363
169	0xbd9f4002	-0.077758804
170	0xbe1fb406	-0.15596017
171	0x3e119040	0.14215183
172	0x3cabf8c8	0.020992652
173	0x3c1b0992	0.009462731
174	0x3db75a24	0.0895274
175	0xbe681a2f	-0.22666238
176	0xbd908ffd	-0.070587136
177	0xbdc1b855	-0.09458987
178	0x3df56a2c	0.11983141
179	0x3ddd4b42	0.1080537
180	0x3d3fea67	0.046854403
181	0xbe5c3f16	-0.2150844
182	0xba85105f	-0.0010151974
183	0xbcb30af7	-0.021855814
184	0x3c580d62	0.013186784
185	0xbe2a6d44	-0.16643244
186	0x3d983419	0.07431812
187	0xbd48ebce	-0.049053006
188	0xbcfdfa77	-0.03100322
189	0x3d50869d	0.050909627
190	0xbd99bf35	-0.07507173
191	0xbcf5dd76	-0.030012827
192	0xbe551bb7	-0.20811354
193	0x3da05652	0.07828964
194	0x3e01d749	0.12679781
195	0x3d195479	0.037434075
196	0x3cf4f439	0.02990161
197	0xbd553d9b	-0.052060705
198	0xbdf3bb00	-0.11900902
199	0x3cfc62ef	0.030808894
200	0x3de5bd31	0.11217726
201	0xbe350e48	-0.17681229
202	0xbcc561d3	-0.024094498
203	0xbcaabc12	-0.020841632
204	0x3c9afe6b	0.018920144
205	0xbdc87648	-0.09788185
206	0xbe6004a6	-0.21876773
207	0x3dba1163	0.090853475
208	0xbd2eaa54	-0.042642906
209	0x3d3cccd0	0.046093762
210	0xbe391614	-0.18074828
211	0x3ddb212f	0.10699689
212	0xbe09c83e	-0.13455293
213	0xbe69325a	-0.22773114
214	0xbbc80840	-0.006104499
215	0xbd9a2844	-0.07527211
216	0x3d30adfc	0.043134674
217	0x3deb3624	0.11484936
218	0xbe8a3c3e	-0.26999086
219	0x3d7dd840	0.06197381
220	0x3d63f1de	0.055650584
221	0xbda37cff	-0.079828255
222	0xbc42671e	-0.011865405
223	0xbdb2408b	-0.08703717
224	0xbe1506a7	-0.14553319
225	0x3a668261	0.00087932317
226	0x3dde5405	0.10855869
227	0x3deb9423	0.11502864
228	0xbdeb938f	-0.11502754
229	0xbdf0e329	-0.11762077
230	0xbd38f67e	-0.04515695
231	0x3dbf2b26	0.09334402
232	0xbda22fb6	-0.079192564
233	0x3d66ef29	0.056380425
234	0xbbe3183c	-0.006930379
235	0xbdd1441f	-0.10218071
236	0x3dc228a5	0.094804086
237	0xbd04ddfe	-0.03243827
238	0xbdd11aa5	-0.1021016
239	0x3d847a71	0.06468666
240	0x3daf332d	0.08554683
241	0xbd4bea50	-0.049784005
242	0x3d9c6f21	0.07638384
243	0xbd900e83	-0.07034018
244	0xbcf21040	-0.029548764
245	0x3d8e36ac	0.069440216
246	0xbdafbcb2	-0.08580913
247	0xbd75a50a	-0.059971847
248	0x3dc46113	0.09588828
249	0xbd9e3196	-0.077243015
250	0xbdfd5058	-0.1236884
251	0xbd500234	-0.05078335
252	0xbe36cd72	-0.17851809
253	0x3d796207	0.0608845
254	0xbdc15459	-0.09439916
255	0xbd4b9e4c	-0.04971151

conv1.lin.weight f4 [128, 50]
0	0xbd877904	-0.06614879
1	0xbda903d4	-0.08252683
2	0x3deac4d6	0.11463325
3	0xbe09474f	-0.13406108
4	0x3da5f2a5	0.081029214
5	0x3e963f52	0.29345185
6	0xbd043c90	-0.03228432
7	0x3d98a883	0.07454016
8	0x3c669182	0.014072778
9	0x3e2dea79	0.16983975
10	0xbd9cac05	-0.076499976
11	0x3e6db547	0.23213683
12	0xbde891c2	-0.11355926
13	0xbe8020c4	-0.25024998
14	0xbcc96384	-0.024583586
15	0x3e38ce2b	0.18047397
16	0x3e20772b	0.15670459
17	0x3c328100	0.010895014
18	0x3c927d79	0.017882096
19	0xbdc4bcb2	-0.09606303
20	0x3ccd357c	0.025049917
21	0x3c2242e0	0.00990364
22	0x3e836b1d	0.25667658
23	0xbe03c318	-0.12867391
24	0xbd906a9f	-0.07051586
25	0xbdc75602	-0.097332016
26	0x3e0d23f4	0.13783246
27	0xbdc7defc	-0.09759328
28	0x3db0278a	0.086012915
29	0x3d10794c	0.035271928
30	0x3e0a3ce4	0.1349979
31	0x3c736b08	0.014857061
32	0x3e894bba	0.26815587
33	0xbd555248	-0.052080423
34	0x3e6cb097	0.23114239
35	0xbd307d30	-0.043088138
36	0xbdd1c36c	-0.10242352
37	0x3dea8a68	0.1145218
38	0x3e047d77	0.12938486
39	0xbd5d4b74	-0.054027036
40	0x3e715e70	0.23571181
41	0x3df251a0	0.11831975
42	0x3d833d96	0.06408231
43	0x3be3abd5	0.006947974
44	0x3ded420f	0.11584865
45	0xbca27ca5	-0.019834826
46	0x3e1d88ac	0.15384167
47	0xbc7fe6a1	-0.015618951
48	0xbdd53138	-0.10409778
49	0x3d81f511	0.06345571
50	0xbde0bcc3	-0.109735034
51	0x3d9dd7a6	0.07707147
52	0x3e19ed57	0.15031944
53	0x3da51629	0.08060867
54	0x3de50b8f	0.11183845
55	0x3db4527b	0.088047944
56	0xbddac06a	-0.10681231
57	0xbe01fc6b	-0.12693946
58	0xbde4f6e7	-0.111799054
59	0xbd721aac	-0.059107468
60	0xbc9b8c66	-0.018987846
61	0x3e30cfb0	0.17266726
62	0x3e13e4a8	0.14442694
63	0xbcb48517	-0.022036118
64	0x3ddfc832	0.10926856
65	0xbde24f15	-0.1105024
66	0x3b5ea81f	0.003397472
67	0x3d0623d2	0.032749005
68	0xbc4898d0	-0.012243465
69	0x3d56c6a5	0.052435536
70	0x3c0118f9	0.007879489
71	0xbe03da81	-0.12876321
72	0x3da050bc	0.07827899
73	0xbe052981	-0.13004114
74	0xbda568b8	-0.08076614
75	0xbc620310	-0.0137946755
76	0x3defac6f	0.11702811
77	0x3d151ec7	0.036406305
78	0x3d4bf12c	0.049790546
79	0x3d68da76	0.056848966
80	0xbe0e0412	-0.1386874
81	0xbdf7ab2d	-0.12093196
82	0xbdf44952	-0.11928047
83	0xbd28ccda	-0.041210987
84	0xbd903a99	-0.070424266
85	0xbd8fb7d2	-0.07017483
86	0x3e0a9309	0.13532652
87	0x3de88d04	0.113550216
88	0xbd173fd2	-0.0369261
89	0x3dcad45c	0.099037856
90	0xbd792a3c	-0.060831293
91	0xbd448caa	-0.04798571
92	0xbcdcf772	-0.02697346
93	0xbd602d98	-0.05473098
94	0x3e071453	0.13191347
95	0xbdc2c6dd	-0.095105864
96	0x3c054480	0.008134007
97	0xbdddc902	-0.10829355
98	0x3dc70e2e	0.097195014
99	0x3dd5b3be	0.10434674
100	0x3e075984	0.13217741
101	0xbd89a479	-0.06720824
102	0xbd014c24	-0.031566754
103	0xbd215684	-0.03938915
104	0x3d640fd5	0.05567916
105	0x3e32fe77	0.17479883
106	0x3dc08da0	0.09402013
107	0x3df3274a	0.11872728
108	0xbdf4a901	-0.119462974
109	0xbd63af4c	-0.055587098
110	0xbc30f9f0	-0.010801777
111	0xbd813217	-0.06308382
112	0x3d096697	0.033545103
113	0xbd9af86a	-0.075669125
114	0x3e05b4d0	0.13057256
115	0x3d0be631	0.034155075
116	0x3d0e0583	0.034673225
117	0x3d050047	0.032470968
118	0xbdf50069	-0.11962969
119	0xbe0a4484	-0.13502699
120	0x3c935b20	0.017987788
121	0xbb4ec040	-0.0031547695
122	0xbc7e6cf0	-0.015528902
123	0x3d06b252	0.032884903
124	0xbd08f0b2	-0.03343267
125	0x3d6c3ac2	0.057673223
126	0xbd81dda5	-0.063411035
127	0x3df61727	0.12016135
128	0x3d63f4bd	0.055653322
129	0xbdb5725c	-0.08859703
130	0xbd8cc481	-0.06873418
131	0x3c6c1e10	0.014411464
132	0xbd793a10	-0.06084639
133	0xbd124b74	-0.03571649
134	0xbd0e5fd6	-0.034759365
135	0xbc9a2278	-0.018815264
136	0x3cf488e1	0.029850425
137	0x3cb2b4c8	0.021814719
138	0x3d242498	0.04007396
139	0xbe5294e4	-0.2056461
140	0x3cf50ebb	0.02991425
141	0x3d0ac089	0.033875022
142	0xbda06fde	-0.07833837
143	0x3dcd35d2	0.10020031
144	0xbc24f480	-0.010068059
145	0xbe0bf27b	-0.13666718
146	0x3cd66207	0.02616979
147	0xbda547e4	-0.08070353
148	0xbddf3e90	-0.10900605
149	0x3d9215b6	0.07133047
150	0xbdff88a2	-0.124772325
151	0x3d3429a7	0.043985035
152	0xbdf84a21	-0.12123514
153	0xbd3ba138	-0.045808047
154	0x3d1d4ae6	0.038401507
155	0xbc605b81	-0.013693691
156	0x3d10154a	0.035176553
157	0x3dab7a00	0.08372879
158	0xbd960515	-0.07325188
159	0xbe03d2ec	-0.12873429
160	0xbd1bb6d8	-0.03801617
161	0xbe448f8a	-0.19195381
162	0x3cf85b32	0.030316923
163	0x3d859eb3	0.0652441
164	0x3db7d71e	0.08976577
165	0xbdeaf937	-0.11473315
166	0x3c8862cf	0.016648678
167	0x3d27a525	0.04092898
168	0x3d2a1343	0.041522276
169	0x3d207386	0.03917267
170	0xbe08cd70	-0.13359618
171	0xbcddf7be	-0.027095672
172	0xbd4495f6	-0.047994576
173	0xbda255b4	-0.07926503
174	0x3cd5fc3b	0.02612125
175	0x3e9a66f6	0.30156678
176	0x3cee7bf2	0.029111836
177	0x3c81aefd	0.015830511
178	0xbdfc0fdf	-0.12307715
179	0xbd5b2d3e	-0.053509943
180	0x3d39a2fc	0.04532145
181	0xbbdfd3e0	-0.0068306774
182	0xbd59ba80	-0.053156376
183	0xbbed7820	-0.007246986
184	0xbc93abe0	-0.018026292
185	0x3cb304e0	0.02185291
186	0x3dac1fb7	0.084044866
187	0x3dbe786f	0.09300315
188	0x3d802afa	0.06258197
189	0x3c9728f0	0.018452138
190	0xbdbeb172	-0.09311189
191	0xbd0e6076	-0.03475996
192	0xbc23ec50	-0.010005072
193	0xbc81c6c8	-0.015841857
194	0x3c22c410	0.00993444
195	0x3d9ad4b4	0.07560101
196	0xbcd9ae84	-0.026572473
197	0xbda6d13b	-0.08145376
198	0x3d2667d0	0.040626347
199	0xbd3916f6	-0.045187913
200	0x3dbc7322	0.09201647
201	0xbd0fbd56	-0.035092674
202	0x3e0da075	0.13830741
203	0x3ddbad73	0.10726442
204	0x3d3a6738	0.045508593
205	0x3d14365c	0.036184654
206	0xbd20e8a6	-0.03928437
207	0x3d87c1f8	0.066287935
208	0x3ce6ce70	0.028174609
209	0x3d03c458	0.03216967
210	0xbca80944	-0.02051223
211	0xbe069bc1	-0.13145353
212	0xbdfbf104	-0.123018295
213	0xbe73e57b	-0.23818009
214	0xbdcb3008	-0.099212706
215	0xbe067058	-0.13128793
216	0xbd15117a	-0.03639362
217	0xbe0b75d9	-0.13619174
218	0xbc519ab0	-0.012793228
219	0x3df7984a	0.12089594
220	0x3d48dd60	0.049039245
221	0xbde19be2	-0.110160604
222	0x3d637540	0.05553174
223	0xbd3dfaea	-0.04638187
224	0x3d73f0a1	0.059555653
225	0xbd355cb8	-0.044277877
226	0x3d843a23	0.06456401
227	0xbd8d5961	-0.06901813
228	0x3d8ebb14	0.06969276
229	0x3e12c005	0.14331062
230	0xbc514fa0	-0.012775332
231	0x3c12eff0	0.008968338
232	0xbd89fa8c	-0.06737241
233	0x3d88e157	0.06683605
234	0xbd4c3678	-0.049856633
235	0x3d977c3e	0.07396744
236	0xbd32f9b2	-0.04369516
237	0x3db652c7	0.08902507
238	0xbda20aa4	-0.07912186
239	0xbd5f40a0	-0.05450499
240	0xbdd96146	-0.106142566
241	0xbe062e5e	-0.13103625
242	0xbdd3ee3a	-0.103481725
243	0x3d8e8edc	0.06960842
244	0xbd95a1ac	-0.07306227
245	0xbdc5a87e	-0.09651278
246	0x3de309a6	0.11085825
247	0xbd72fd40	-0.05932355
248	0xbb46aa00	-0.003031373
249	0x3d1d0e65	0.038343806
250	0xbbc7469d	-0.006081416
251	0xbdce5be7	-0.10076123
252	0x3e44d745	0.19222744
253	0x3e546a69	0.20743717
254	0x3d903af5	0.07042495
255	0x3e298735	0.16555484

conv1.lin.bias f4 [128]
0	0xbcab8b0c	-0.020940326
1	0xbe40adec	-0.18816346
2	0xbd35d7d2	-0.044395275
3	0xbd5e7d60	-0.054318786
4	0xbe0f3895	-0.13986428
5	0x3d75ba02	0.059991844
6	0xbdf0f6d4	-0.11765829
7	0xbbcd025f	-0.006256386
8	0xbc9e6385	-0.019334564
9	0xbceb5688	-0.028727785
10	0x3dd2a3f7	0.1028518
11	0xbdaea9bf	-0.0852847
12	0xbdb7f9cf	-0.08983194
13	0x3dc7af4c	0.09750232
14	0x3dc3b2c8	0.09555584
15	0x3c1dac7b	0.009623642
16	0xbd40ebc8	-0.04709986
17	0xbdfaa29f	-0.12238049
18	0x3d3dbc0c	0.046321914
19	0x3e0db210	0.13837457
20	0xbdebd971	-0.11516083
21	0xbe2245df	-0.15846966
22	0x3decc246	0.11560492
23	0x3e040a0d	0.12894459
24	0x3df63548	0.12021881
25	0x3c28db34	0.010306168
26	0x3d72c491	0.05926949
27	0x3d456c0b	0.04819874
28	0xbd7c0583	-0.061528694
29	0xbd125402	-0.035724647
30	0x3c8f908b	0.017524978
31	0xbdd3ef06	-0.103483245
32	0x3dbe5ca7	0.09295016
33	0xbe099b11	-0.1343806
34	0xbd6b6faa	-0.057479538
35	0x3d6deed4	0.058089092
36	0x3da0f534	0.07859269
37	0x3dbbbaff	0.09166526
38	0xbc54706a	-0.012966255
39	0x3e10d746	0.1414462
40	0xbd1cca40	-0.038278818
41	0x3de5d734	0.11222687
42	0x3d98834d	0.07446919
43	0xbe0c88f2	-0.13724115
44	0x3cf4b0e9	0.029869514
45	0xbd0da333	-0.034579467
46	0xbe0afb41	-0.13572408
47	0xbc97b995	-0.01852111
48	0xbd8fa73f	-0.070143215
49	0x3d4b8bd5	0.0496939
50	0xbe06859a	-0.13136902
51	0xbe336d33	-0.17522125
52	0xbdab2f85	-0.08358673
53	0xbd532928	-0.05155292
54	0xbd7ead45	-0.06217696
55	0x3d3b7276	0.045763455
56	0x3b408901	0.0029378536
57	0xbd66ff9e	-0.05639612
58	0xbc9affce	-0.018920805
59	0x3d07efc5	0.033187646
60	0x3db63ed4	0.08898702
61	0xbd4f5120	-0.050614476
62	0x3d7908ae	0.060799293
63	0x3ddedad3	0.10881581
64	0xbd4a3507	-0.049366977
65	0xbdc9869f	-0.0984013
66	0xbd87bab4	-0.06627408
67	0xbde379ee	-0.111072406
68	0xbdf6409c	-0.12024042
69	0x3d7709ca	0.06031207
70	0x3d8f4cc9	0.069970675
71	0xbe1aaa9a	-0.15104142
72	0xbe0c65c4	-0.13710696
73	0x3d9c3a17	0.07628267
74	0x3d03dcb9	0.03219292
75	0x3b5e0750	0.003387887
76	0xbd8c3e1b	-0.06847783
77	0x3e01c4ac	0.1267268
78	0xbd952cc9	-0.07283933
79	0xbe0592bc	-0.13044256
80	0x3ca8eb06	0.02061988
81	0xbcb8bdfb	-0.022551527
82	0x3cceabee	0.025228467
83	0xbe29300b	-0.16522233
84	0xbd554463	-0.05206717
85	0xbdb4d118	-0.08828944
86	0xbd1dd5b3	-0.038533878
87	0x3d2dd204	0.042436615
88	0x3c75e54f	0.015008285
89	0xbd8c0fb2	-0.06838931
90	0xbe124103	-0.14282613
91	0x3d807eb6	0.06274168
92	0x3d507cd9	0.050900314
93	0xbc235c80	-0.009970784
94	0xbcbd79a5	-0.023129294
95	0xbd42db05	-0.047572155
96	0xbdd5f5da	-0.10447283
97	0x3d18d9ee	0.03731721
98	0xbda2dd6a	-0.07952388
99	0xbc440cdb	-0.011965956
100	0x3e3b21b6	0.18274578
101	0xbd9bccf3	-0.0760745
102	0x3e1311a6	0.14362201
103	0xbcf72a6a	-0.030171592
104	0x3dbe9959	0.093065925
105	0xbcdf187d	-0.027233357
106	0xbd1c8b2e	-0.03821867
107	0x3e114a34	0.14188462
108	0x3cab0438	0.020876035
109	0x3da1d090	0.07901108
110	0x3dfed62c	0.12443194
111	0x3d879f72	0.06622209
112	0xbdfecbf2	-0.12441243
113	0xbd8c074e	-0.06837331
114	0xbdf66d78	-0.12032598
115	0x3ddb83d7	0.10718506
116	0xbd799e23	-0.060941827
117	0xbdd92ba7	-0.10604029
118	0x3dafb92f	0.08580243
119	0x3d7246f8	0.059149712
120	0xbdc4a89e	-0.09602474
121	0xbdc7fc3e	-0.09764908
122	0x3daaff05	0.08349422
123	0x3df02acb	0.11726912
124	0x3c7852d2	0.015156465
125	0xbd1de906	-0.038552307
126	0x3dd8de24	0.10589245
127	0x3d82b33b	0.06381842

conv2.weight f4 [128, 128]
0	0x3d081aa3	0.033228528
1	0x3dd87e0b	0.10570916
2	0x3d3a0852	0.04541809
3	0xbe5d61bf	-0.21619318
4	0x3d8fff85	0.07031158
5	0xbe8ef7d7	-0.27923462
6	0xbc39f97c	-0.011350986
7	0x3d84fb7d	0.0649328
8	0x3e77457e	0.24147603
9	0x3d2ece97	0.04267749
10	0xbd976653	-0.07392564
11	0x3e35e2a0	0.17762232
12	0xbd29a703	-0.04141904
13	0xbdd2b049	-0.1028753
14	0xbbc2842c	-0.0059361663
15	0xbe1f735c	-0.1557135
16	0x3cda96bc	0.026683204
17	0x3e0c3a5f	0.13694142
18	0xbd8843f5	-0.06653587
19	0xbd933d36	-0.071894094
20	0x3e0fc428	0.14039671
21	0xbd3ae7b3	-0.04563112
22	0x3da4169a	0.080121234
23	0x3dc9b17f	0.09848308
24	0x3e94bc97	0.29050133
25	0xbdc4e03b	-0.09613081
26	0xbd4a9bdd	-0.04946505
27	0x3e2110d7	0.1572908
28	0xbdb1adfd	-0.08675764
29	0x3d0dd9bb	0.034631472
30	0x3b58f7c0	0.0033106655
31	0x3dd1e22b	0.10248216
32	0x3d7a328f	0.061083373
33	0x3dddcffc	0.108306855
34	0x3d017f03	0.03161527
35	0x3d1b7aa4	0.037958756
36	0xbc177cf3	-0.009246099
37	0xbc34098c	-0.010988604
38	0x3d595a46	0.053064607
39	0x3e06a81b	0.13150065
40	0x3d07f62f	0.033193763
41	0xbda91c03	-0.08257296
42	0x3e0e9b28	0.13926375
43	0x3d1ced5d	0.038312305
44	0xbddc40f0	-0.10754573
45	0xbd6e0f63	-0.058120143
46	0x3d172b67	0.036906626
47	0xbcc23161	-0.023705186
48	0xbdba08ee	-0.090837345
49	0xbd92b343	-0.07163098
50	0x3df6b398	0.120459735
51	0xbd35487d	-0.044258583
52	0xbe02a31c	-0.12757534
53	0x3c0bbe14	0.008529205
54	0xbcba45d4	-0.022738375
55	0xbde085ad	-0.10962997
56	0xbd120cd6	-0.035656773
57	0xbd8fac88	-0.070153296
58	0xbc0dfff2	-0.008666979
59	0x3ccfd8b0	0.02537188
60	0x3d4c70dc	0.04991232
61	0xbd0ea947	-0.034829404
62	0xbd378682	-0.04480601
63	0x3ddc6048	0.10760552
64	0xbc2de630	-0.010613963
65	0xbc0cdd9a	-0.008597756
66	0x3cad88ac	0.021183334
67	0x3be0b3fd	0.006857394
68	0x3cbab7aa	0.022792656
69	0x3d1c5d6d	0.038175035
70	0x3dc298a2	0.09501769
71	0x3e04ef86	0.12981996
72	0x3dccd61d	0.10001776
73	0xbd8977ac	-0.06712279
74	0xbe20bf10	-0.15697885
75	0x3da83b2c	0.08214411
76	0x3c456f13	0.012050408
77	0x3db1e192	0.08685602
78	0xbde19784	-0.110152274
79	0x3de68ce9	0.11257345
80	0xbe030c43	-0.12797646
81	0xbda61756	-0.0810992
82	0x3e463847	0.19357406
83	0xbd27dd2e	-0.040982418
84	0xbce7884f	-0.02826324
85	0xbd9329ec	-0.0718573
86	0xbde86726	-0.11347799
87	0xbd155225	-0.036455292
88	0xbd9bc9c7	-0.07606845
89	0xbe4af2e8	-0.19819224
90	0x3d84b6da	0.06480189
91	0x3e43f33f	0.1913576
92	0x3d95d0b0	0.073151946
93	0xbc94de26	-0.018172335
94	0xbcc45f5a	-0.023971248
95	0xbda1192e	-0.07866131
96	0xbe0abef9	-0.13549413
97	0x3a6f8395	0.0009136734
98	0x3d443611	0.047903124
99	0xbd7d5495	-0.06184824
100	0xbd25364e	-0.040334992
101	0x3d134cec	0.03596203
102	0x3e322b2d	0.17399283
103	0x3e3235c0	0.17403316
104	0xbcc0f473	-0.023554062
105	0x3d986595	0.0744125
106	0xbdcc47e4	-0.099746495
107	0x3d6e43ef	0.058170255
108	0xbdf0897e	-0.117449746
109	0x3cbaa464	0.022783466
110	0x3d4958bc	0.04915689
111	0x3e1302a8	0.14356482
112	0x3e2b5602	0.16732028
113	0x3dbe6e1d	0.09298346
114	0x3d8204cb	0.063485704
115	0x3e329bd6	0.17442259
116	0x3b276510	0.0025542416
117	0xbdc89955	-0.09794871
118	0xbd823358	-0.06357449
119	0x3d4bc063	0.04974402
120	0x3e66cf90	0.22540116
121	0xbc5a27ca	-0.0133151505
122	0x3e142e93	0.14470892
123	0xbe7fb788	-0.24972355
124	0x3d377403	0.04478837
125	0xbcdc9944	-0.026928551
126	0xbcf794d9	-0.030222343
127	0xbc36af93	-0.011150259
128	0xbdd64b58	-0.104635894
129	0xbcbca0a8	-0.023025826
130	0xbda8e01f	-0.08245873
131	0x3debe414	0.11518112
132	0x3dbcb8ea	0.09214957
133	0xbdbbbd9f	-0.09167027
134	0xbdb85ae2	-0.090017095
135	0x3d06a98d	0.03287654
136	0x3d89d93b	0.067308865
137	0x3d83b46d	0.06430898
138	0xbdb88661	-0.09010006
139	0xbd7a962a	-0.061178364
140	0xbb9ab65d	-0.0047214464
141	0xbe017aee	-0.1264455
142	0x3b8dcdb1	0.004327499
143	0xbda5709e	-0.08078121
144	0xbd45cc6d	-0.04829066
145	0x3db69c93	0.08916583
146	0xbb12e2ac	-0.002241294
147	0xbbb939ff	-0.0056526656
148	0xbd823f33	-0.063597105
149	0x3bf0c412	0.007347592
150	0xbd57629c	-0.052584276
151	0x3de55e18	0.111995876
152	0x3d066ab2	0.032816596
153	0xbdb21418	-0.08695239
154	0x3cda566f	0.026652543
155	0xbc9681d6	-0.018372457
156	0xbd3f87a0	-0.0467602
157	0x3d2e1c15	0.04250725
158	0xbcb46eb0	-0.022025436
159	0xbd965acc	-0.07341537
160	0xbdf5d18c	-0.120028585
161	0x3c8505b9	0.01623808
162	0xbd76b025	-0.06022658
163	0x3d8bb21e	0.068210825
164	0x3cb6f10b	0.022331735
165	0x3c168349	0.009186574
166	0x3c96a66f	0.018389909
167	0xbd98193c	-0.07426688
168	0xbd17c958	-0.03705725
169	0x3dad4b92	0.084616795
170	0xbded5547	-0.11588531
171	0xbc930ff4	-0.017951943
172	0xbd23cb33	-0.039988708
173	0xbd5f9012	-0.054580756
174	0x3d8a0daa	0.067408875
175	0xbb984bee	-0.0046477234
176	0x3d587881	0.052849296
177	0x3d500f08	0.050795585
178	0xbca2343c	-0.019800298
179	0x3df352e3	0.11881044
180	0x3d1680c7	0.036743905
181	0xbd352dcd	-0.044233132
182	0x3c92947a	0.017893065
183	0xbdda2b5b	-0.10652801
184	0xbe273aec	-0.1633107
185	0xbd117aa3	-0.035517346
186	0x3ca7df3d	0.02049219
187	0xbc22cab6	-0.009936025
188	0xbd083584	-0.03325416
189	0xbd4ae9a0	-0.04953921
190	0xbe0fe397	-0.14051662
191	0x3cdaff2b	0.026733002
192	0xbbebd6fc	-0.007197259
193	0xbdb89b56	-0.09014003
194	0xbd48788a	-0.04894308
195	0xbe6195b5	-0.22029765
196	0xbb4c03d5	-0.0031130214
197	0xbd83ae8c	-0.064297765
198	0x3d3bf457	0.045887318
199	0x3d892c27	0.066978745
200	0xbdb29857	-0.08720463
201	0xbdf86bbd	-0.121299244
202	0xbcf103de	-0.02942079
203	0x3c2f6836	0.010705998
204	0x3d52da8b	0.05147795
205	0x3d83e6b3	0.06440487
206	0x3dc28a31	0.09499014
207	0x3c0cf0bd	0.008602318
208	0x3d776914	0.060402945
209	0xbddde94b	-0.10835513
210	0x3d1a09f4	0.03760715
211	0x3e1226a3	0.14272551
212	0xbd08058d	-0.03320842
213	0x3d0d388c	0.034477755
214	0xbddbedb3	-0.10738697
215	0xbccd6fba	-0.02507769
216	0xbd6e3dc7	-0.058164384
217	0x3c6a5e29	0.014304676
218	0xbd854023	-0.06506374
219	0xbca30e96	-0.019904416
220	0xbba2d804	-0.0049695987
221	0xbd1ffd4c	-0.039059922
222	0x3d814eda	0.06313868
223	0xbdbe2e9d	-0.092862345
224	0xbd9e85fb	-0.077403985
225	0x3cc834e4	0.024439283
226	0xbc354bf0	-0.011065468
227	0x3c0ceb5c	0.008601036
228	0xbe026fa9	-0.12737907
229	0x3d4749ba	0.048654296
230	0x3db66b08	0.08907133
231	0xbda76a9f	-0.08174633
232	0xbdba657c	-0.09101388
233	0xbdc179d1	-0.09447063
234	0xbcc44b6d	-0.023961747
235	0x3deed44a	0.11661585
236	0x3d7b2313	0.061312746
237	0x3db47aef	0.0881251
238	0xbd3f2276	-0.046663724
239	0xbc8ba691	-0.017047198
240	0x3d177f91	0.03698689
241	0xbe375f02	-0.17907336
242	0xbda6bacf	-0.081411
243	0xbd6eb37d	-0.058276642
244	0xbd178027	-0.03698745
245	0x3d773538	0.060353488
246	0xbd8b328d	-0.06796751
247	0xbd7ba575	-0.06143709
248	0xbd20ded8	-0.03927502
249	0xbdb1d726	-0.086836144
250	0xbda01754	-0.078169495
251	0x3d1fa43c	0.038974985
252	0xbdd0e848	-0.10200554
253	0xbd58ea3a	-0.05295775
254	0xbab1f05f	-0.0013575664
255	0xba3e03a8	-0.00072484696

conv2.lin.weight f4 [128, 128]
0	0xbdca00c5	-0.09863428
1	0x3d0e6e86	0.034773372
2	0xbcddc8fb	-0.027073374
3	0x399c0116	0.00029755448
4	0x3dd5cd5d	0.104395606
5	0x3bf3011f	0.007415905
6	0xbe54df00	-0.20788193
7	0x3be76f64	0.0070628393
8	0x3cbd0ef1	0.023078414
9	0xbc2e8f63	-0.010654303
10	0xbe777bd9	-0.24168338
11	0x3dad685d	0.08467171
12	0x3a0dac42	0.00054043916
13	0xbc61b7e1	-0.01377675
14	0x3d10a78c	0.035316035
15	0x3c1732fc	0.009228464
16	0x3e18daf7	0.14927278
17	0x3daaaa84	0.083333045
18	0xbcd8c65a	-0.026461769
19	0x3cc47df4	0.02398584
20	0x3d6d88cb	0.057991784
21	0xbc74b4af	-0.014935656
22	0xbe2816a8	-0.16414893
23	0x3d21c57a	0.03949497
24	0xbd2c7160	-0.04210031
25	0xbd63acd8	-0.05558476
26	0xbe02ab8d	-0.12760754
27	0x3d2a72b8	0.04161331
28	0xbe4e9e78	-0.20177639
29	0xbcce12f9	-0.025155531
30	0xbdb6d6ba	-0.089276746
31	0xbdd7879f	-0.105239145
32	0x3deee970	0.116656184
33	0xbdedc701	-0.116102226
34	0x3d54c1d5	0.051942665
35	0xbd9a6090	-0.07537949
36	0xbd91461b	-0.0709345
37	0xbcb679a3	-0.022274798
38	0xbe57f467	-0.21089326
39	0x3c5e4ec8	0.013568588
40	0x3cebacb4	0.028768875
41	0x3c46d073	0.012134659
42	0xbd130266	-0.03589096
43	0x3d534198	0.051576227
44	0x3d010f37	0.03150865
45	0xbdc3189a	-0.09526177
46	0x3d2e08ba	0.04248879
47	0xbdc904a1	-0.09815336
48	0x3cf6be85	0.030120144
49	0xbc8b6a71	-0.017018529
50	0x3d3f9035	0.046768386
51	0xbd1114a6	-0.035420083
52	0x3cfc39a2	0.0307892
53	0xbe0cc9df	-0.13748883
54	0x3d6a95fc	0.057271942
55	0x3de0d549	0.10978181
56	0x3c251281	0.010075212
57	0xbd2e45a4	-0.042546883
58	0xbdc4550e	-0.095865354
59	0x3dc9a931	0.09846724
60	0xbcdfbaa6	-0.02731068
61	0xbc2b38a7	-0.010450519
62	0x3db56e69	0.0885895
63	0x3d671614	0.05641754
64	0xbe635800	-0.22201538
65	0xbcb0dd3c	-0.021589868
66	0xbafd4161	-0.0019321853
67	0xbd76d475	-0.06026121
68	0x3c83f6d1	0.016108902
69	0xbc4b8575	-0.012421955
70	0x3ddaea03	0.106891654
71	0xbd04120e	-0.03224378
72	0x3d955b96	0.07292859
73	0xbea0f130	-0.3143401
74	0xbdb342d1	-0.087529786
75	0xbdd34c01	-0.10317231
76	0x3c96091d	0.018314892
77	0x3cef0fb8	0.0291823
78	0xbe13dce5	-0.14439733
79	0x3d95631e	0.07294296
80	0x3dbd9138	0.09256214
81	0x3d5a8bcf	0.053355988
82	0xbcfaa859	-0.030597853
83	0x3e3ce450	0.1844647
84	0xbd366fa8	-0.044540077
85	0xbd9bc8d0	-0.07606661
86	0xbd78655f	-0.06064355
87	0x3d8a9313	0.067663334
88	0x3d1fb5a7	0.038991597
89	0x3cbe3be0	0.02322191
90	0xbd16d270	-0.036821783
91	0xbc6d4fe9	-0.014484384
92	0xbb369180	-0.002785772
93	0x3e0af3bb	0.13569538
94	0x3c0f5516	0.008748313
95	0x3dfe124c	0.124058336
96	0xbd7d47fd	-0.06183623
97	0xbdcf562e	-0.10123859
98	0xbd8f61b8	-0.0700106
99	0xbd8a3539	-0.06748433
100	0x3dd2a833	0.10285988
101	0xbe3b93af	-0.18318056
102	0xbdb41da2	-0.087947145
103	0x3d975592	0.07389368
104	0x3d532d7e	0.051557057
105	0x3db31305	0.08743862
106	0x3d181046	0.037124895
107	0xbd9ab2e4	-0.07553652
108	0x3dd59707	0.10429197
109	0xbd6d48cc	-0.057930753
110	0xbdbe9684	-0.09306052
111	0x3dc42902	0.09578134
112	0x3da49be7	0.080375485
113	0x3e4238f8	0.18967044
114	0x3d725be5	0.05916967
115	0xbd687706	-0.056754135
116	0xbeac2499	-0.33621672
117	0x3dc53f0e	0.09631167
118	0x3df39f79	0.11895651
119	0x3bbe456c	0.0058066156
120	0x3deef014	0.11666885
121	0xbdcd1d02	-0.100152984
122	0x3dc1155c	0.09427902
123	0xbe255425	-0.1614538
124	0xbda9b555	-0.082865395
125	0x3cc5fdee	0.024168935
126	0x3ba9aad8	0.005177837
127	0xbdb22043	-0.0869756
128	0x3dfdde9a	0.123959735
129	0xbe4607ad	-0.19338866
130	0x3d47a707	0.048743274
131	0x3df32b2d	0.118734695
132	0xbda029cc	-0.07820472
133	0xbcc576b4	-0.024104454
134	0xbb825c25	-0.0039782696
135	0x3c066b94	0.00820436
136	0xbd1a45b9	-0.03766415
137	0xbbe7b5a1	-0.0070712124
138	0xbdf82c5f	-0.12117838
139	0xbd364e1d	-0.04450809
140	0xbe0b5b1f	-0.13608979
141	0xba3ae5de	-0.000712959
142	0x3dcdd3f6	0.10050194
143	0xbd455bfb	-0.048183423
144	0xbdadc930	-0.08485639
145	0xbd8b3c13	-0.067985676
146	0x3d773dbe	0.060361616
147	0x3d3dada2	0.046308167
148	0xbdd71238	-0.10501522
149	0xbe558924	-0.20853096
150	0x3da1069c	0.07862589
151	0x3df2f951	0.118639596
152	0x3d1bd21b	0.03804217
153	0x3d346b13	0.044047426
154	0xbde69f10	-0.112608075
155	0xbd3b4283	-0.045717727
156	0xbdddd534	-0.10831681
157	0x3e4c5315	0.19953568
158	0xbdb58443	-0.088631175
159	0x3d9d0ba5	0.07668237
160	0x3d6ba06e	0.057526045
161	0x3c77b972	0.015119897
162	0xbda25b39	-0.079275556
163	0x3c6743be	0.014115272
164	0x3d21c367	0.03949299
165	0x3d87883b	0.06617781
166	0xbe221eec	-0.15832108
167	0x3ae8dadb	0.0017765419
168	0x3d6adf7a	0.05734203
169	0x3d1bc1c7	0.038026597
170	0xbd2a3f5a	-0.041564323
171	0xbe1a3241	-0.15058233
172	0x3d1a34d2	0.03764803
173	0x3d939be7	0.072074704
174	0xbc28504d	-0.010273051
175	0x3e1931e8	0.14960444
176	0xbb5add94	-0.003339623
177	0xbd0699ac	-0.032861397
178	0xbd9dff62	-0.07714726
179	0xbcc7175b	-0.024303129
180	0xbd0457f8	-0.032310456
181	0xbcf5da48	-0.030011311
182	0x3ddf8a4e	0.109150514
183	0x3d3bc63b	0.045843344
184	0x3ce229ee	0.027607884
185	0x3c9db733	0.019252395
186	0xbdf5fd24	-0.12011173
187	0x3e014a63	0.12626033
188	0x3daa4d03	0.0831547
189	0xbd9e11ac	-0.077182144
190	0x3e70b9d3	0.23508386
191	0xbd061271	-0.03273243
192	0xbd8bbbfa	-0.06822963
193	0xbd3eb894	-0.046562746
194	0xbe190f73	-0.149473
195	0x3ce9894f	0.028507857
196	0x3cfe72a0	0.031060517
197	0xbd061c62	-0.03274191
198	0x3d55b44d	0.0521739
199	0x3d216036	0.039398395
200	0xbe22054d	-0.15822335
201	0xbd282979	-0.041055176
202	0x3d59cc06	0.053173088
203	0xbd4e99dc	-0.0504397
204	0xb9b87d14	-0.00035188405
205	0x3de759a3	0.11296394
206	0xbe696778	-0.22793376
207	0xbcddb652	-0.027064476
208	0x3e4c747f	0.19966315
209	0x3ce6dccf	0.028181462
210	0xbdbf4961	-0.09340168
211	0xbdc44b02	-0.09584619
212	0xbd0db268	-0.03459397
213	0x3e6096c5	0.21932514
214	0x3d77d5c1	0.060506586
215	0x3ce74f88	0.028236166
216	0xbdb48d1e	-0.088159785
217	0xbe06f99f	-0.1318116
218	0x3d063ba3	0.032771718
219	0xbda82d31	-0.082117446
220	0x3d45c76d	0.04828589
221	0xbad482a1	-0.0016213247
222	0xbd1974a0	-0.037464738
223	0x3db8b9ba	0.090197995
224	0x3dd35d2a	0.10320504
225	0xbd0e7680	-0.03478098
226	0xbc1b1b4e	-0.009466959
227	0xbe3ec439	-0.1862954
228	0x3d793d06	0.060849212
229	0xbda93a6f	-0.082630984
230	0xbca6a848	-0.020343915
231	0xbd907b09	-0.07054717
232	0x3d600e32	0.054701038
233	0xbdece05a	-0.11566229
234	0xbd90159e	-0.07035373
235	0xbd52fd59	-0.051511142
236	0xbde98d98	-0.1140396
237	0x3cb5ad7d	0.022177452
238	0x3db0de8d	0.08636198
239	0xbdb58ec6	-0.088651225
240	0x3bae5121	0.00531973
241	0x3de93105	0.11386303
242	0xbe07dc75	-0.13267691
243	0x3d343b95	0.044002134
244	0xbd7a05d8	-0.06104073
245	0xbd1cec62	-0.03831137
246	0x3d9c161f	0.07621407
247	0xbda4a3d9	-0.08039064
248	0xbd7085fc	-0.058721527
249	0x3e5a7ed6	0.21337447
250	0x3daf8fd1	0.08572353
251	0xbd177359	-0.03697524
252	0xbd3f2e0b	-0.04667477
253	0xbbc321cf	-0.005954958
254	0xbb70bfdd	-0.0036735453
255	0xbdce12d9	-0.10062189

conv2.lin.bias f4 [128]
0	0x3d01a9f4	0.03165622
1	0x3da71c76	0.08159725
2	0xbd643bc3	-0.055721056
3	0xbcf7ebf5	-0.03026388
4	0xbd26e87a	-0.04074905
5	0x3d97d5d8	0.07413834
6	0x3d548ab7	0.0518901
7	0x3ceb1952	0.028698597
8	0xbd2ebba7	-0.042659428
9	0xbcb28f95	-0.02179698
10	0x3c9c56a1	0.019084277
11	0x3daa4fa8	0.083159745
12	0xbda7c16e	-0.08191191
13	0x3dc184e8	0.09449178
14	0xbcdaa67a	-0.02669071
15	0x3da66b7d	0.081259705
16	0xbd069db5	-0.032865245
17	0xbd4d25cf	-0.050084885
18	0xbdaec507	-0.08533674
19	0x3d6f65de	0.058446757
20	0x38b4a04a	8.612925e-05
21	0x3ccadef4	0.024764515
22	0xbbfd183c	-0.007723836
23	0x3ce71724	0.028209276
24	0xbc6d74bf	-0.0144931665
25	0x3d1c3d65	0.038144488
26	0xbde10a7a	-0.10988326
27	0x3d8dfff5	0.069335856
28	0xbd8a8d72	-0.0676526
29	0xbdca5028	-0.0987857
30	0xbdb1c36f	-0.08679854
31	0x3da1105e	0.0786445
32	0xbc485882	-0.012228133
33	0xbdd1e54f	-0.10248815
34	0x3d50abe6	0.050945185
35	0x3caa6993	0.020802295
36	0x3cfdf699	0.031001376
37	0xbd6e0d09	-0.0581179
38	0xbd9f8176	-0.077883646
39	0x3d8e8e1d	0.069607
40	0xbda844c4	-0.08216241
41	0xbda5f052	-0.08102478
42	0x3d93f554	0.07224527
43	0xbde1a1e0	-0.11017203
44	0x3ddb9172	0.10721101
45	0x3d3b78d3	0.045769524
46	0xbda1dc5b	-0.079033576
47	0x3c43a5d7	0.011941395
48	0x3e0d680d	0.13809223
49	0x3b0cfaec	0.0021511866
50	0xbd11c44e	-0.0355876
51	0xbc234b39	-0.009966665
52	0x3d4ec7f5	0.050483663
53	0xbc3418cb	-0.010992239
54	0xbcb5ff21	-0.022216382
55	0xbd14ae4a	-0.036299028
56	0x3d80d58f	0.06290733
57	0xbcbdb82e	-0.023159113
58	0xbd5303c1	-0.051517252
59	0x3cd31d86	0.025770914
60	0x3d1a34ab	0.037647884
61	0x3de3c3a0	0.11121297
62	0xbd40c6d4	-0.047064617
63	0x3dadcebf	0.08486699
64	0x3dc0f7a1	0.094222315
65	0x3be9b5f4	0.007132286
66	0xbd4c7dab	-0.049924534
67	0xbc9acb72	-0.018895838
68	0x3d8167de	0.06318639
69	0x3d04d3aa	0.03242842
70	0xbdb7e574	-0.089793116
71	0x3d1676cc	0.036734387
72	0xbd54e568	-0.05197659
73	0x3dc0cfcc	0.09414634
74	0x3d8e7285	0.069554366
75	0xbb50a382	-0.003183574
76	0x3d83196e	0.06401335
77	0xbdcc3827	-0.09971648
78	0xbd631748	-0.055442125
79	0xbd0b97a4	-0.034080163
80	0x3da7776c	0.08177075
81	0x3c97ad76	0.01851533
82	0x3d821a4f	0.06352674
83	0xbc093ad5	-0.008375843
84	0x3da68662	0.081311
85	0xbc984cf4	-0.018591382
86	0x3dcee06b	0.10101398
87	0xbd8cc56b	-0.06873592
88	0xba0141f4	-0.0004930787
89	0xbc9525b5	-0.018206457
90	0xbcb66cf7	-0.022268755
91	0xbdf975c9	-0.12180669
92	0xbd80ee05	-0.062953986
93	0x3d845cde	0.064630255
94	0x3b9cfcbd	0.004790871
95	0xbd72d094	-0.059280947
96	0xbd2b69a8	-0.04184881
97	0xbe0b71cf	-0.13617633
98	0x3d8db2ac	0.069188446
99	0xbc116d1e	-0.008876113
100	0xbc774e57	-0.015094361
101	0xbda0e6aa	-0.07856496
102	0xbd014714	-0.031561926
103	0x3d8722ec	0.06598458
104	0x3d5d2d9d	0.05399858
105	0xbd3fcb3b	-0.046824675
106	0x3e17259f	0.14760445
107	0x3d0706e1	0.032965545
108	0xbd9c1a7b	-0.07622238
109	0xbdc0ea28	-0.09419662
110	0x3d70516d	0.058671404
111	0x3c687de1	0.014190168
112	0xbd244eae	-0.040114097
113	0xbd9f8a15	-0.07790009
114	0x3ca40e9c	0.020026498
115	0x3e030b17	0.12797199
116	0x3c84a11e	0.016190108
117	0xbdab7436	-0.08371775
118	0xbd1506c3	-0.0363834
119	0x3dd09610	0.10184872
120	0xbc81b9db	-0.015835693
121	0xbd043b2b	-0.03228299
122	0x3c273c29	0.010207214
123	0xbd60159b	-0.054708105
124	0x3d94025c	0.072270125
125	0xbb4a03c8	-0.0030825008
126	0xbdb958d4	-0.09050146
127	0x3bec4117	0.0072099078

conv3.weight f4 [128, 128]
0	0x3b16a876	0.0022988594
1	0xbdb3f3eb	-0.08786758
2	0xbc535d80	-0.01290071
3	0x3e111fa5	0.14172228
4	0x3d271194	0.04078825
5	0xbc3a63d9	-0.011376345
6	0x3de860df	0.11346602
7	0xbe277c08	-0.16355908
8	0xbe052536	-0.13002476
9	0xbd4255a1	-0.047444943
10	0x3d6b943b	0.05751441
11	0xbdcecd34	-0.10097733
12	0xbc6ded14	-0.014521856
13	0x3c3520b4	0.01105516
14	0xbd914aa3	-0.07094314
15	0xbd5c88a8	-0.053841263
16	0xbd08b0a4	-0.033371583
17	0xbd1e08a5	-0.038582463
18	0xbd8dbd1f	-0.069208376
19	0x3d3249c1	0.04352737
20	0x3c8f3390	0.017480642
21	0x3ca411a9	0.020027952
22	0xbdba2f8b	-0.09091099
23	0xbcc0487c	-0.023472063
24	0x3a37bdf7	0.0007009203
25	0x3b9e1b5f	0.00482504
26	0xbe2f7865	-0.1713577
27	0xbdc2052d	-0.094736435
28	0xbd3af816	-0.04564675
29	0xbde45f8f	-0.11151039
30	0xbce6e0fd	-0.028183455
31	0xbdc038d1	-0.09385837
32	0xbe169108	-0.14703763
33	0xbc6f7caf	-0.014617129
34	0x3d511675	0.051046807
35	0x3d44a6e8	0.048010737
36	0x3d461801	0.048362736
37	0xbe6c83c9	-0.23097147
38	0xbdbbc0ac	-0.091676086
39	0x3a0d420d	0.00053885655
40	0x3d74b5b0	0.059743583
41	0xbccaddde	-0.024763998
42	0xbc8357c4	-0.01603306
43	0xbded78a4	-0.11595276
44	0x3da6f4e6	0.081521794
45	0x3d4c7d43	0.049924146
46	0x3d6a62b2	0.05722303
47	0xbc4457d0	-0.011983827
48	0x3caf9373	0.021432614
49	0x3dd4fe35	0.10400049
50	0xbd99c23d	-0.07507751
51	0x3c934cfc	0.017981045
52	0x3cb06cd6	0.021536272
53	0xbdf2ca51	-0.11854995
54	0xbc664eeb	-0.014056901
55	0xbdb32d24	-0.08748844
56	0xbdeeba1f	-0.116565935
57	0xbd9d2f82	-0.07675077
58	0xbd8d4d53	-0.06899514
59	0x3d0d2d7c	0.034467205
60	0xbdf6a18b	-0.120425306
61	0xbdcbb349	-0.09946305
62	0xbe000777	-0.12502848
63	0xbc486517	-0.012231133
64	0xbd4284ef	-0.047490057
65	0xbd600e6e	-0.05470126
66	0xbd187b83	-0.037227165
67	0xbd543ec8	-0.051817685
68	0xbe2760dc	-0.16345543
69	0xbc63ff6f	-0.013915881
70	0xbdcea7f5	-0.10090629
71	0xbcfb34c2	-0.030664805
72	0xbc85feca	-0.016356844
73	0x3e23248b	0.15931909
74	0xbcc760b0	-0.024338096
75	0xbe03da1e	-0.12876174
76	0xbe389641	-0.18026067
77	0x3da7d93b	0.0819573
78	0xbcc57481	-0.024103405
79	0xbdf33130	-0.11874616
80	0xbdb71e22	-0.08941294
81	0xbdbf11bc	-0.093295544
82	0x3d0946b7	0.033514705
83	0x3c0cb0be	0.0085870605
84	0xbda44bf3	-0.08022299
85	0x3c80e852	0.015735779
86	0xbc3b0ddb	-0.011416878
87	0xbd8a224d	-0.067448236
88	0xbd978dff	-0.074001305
89	0xbea48a26	-0.3213665
90	0xbce40374	-0.027833678
91	0xbd119a9f	-0.03554785
92	0xbcb51e34	-0.022109129
93	0x3c469e76	0.012122741
94	0xbd4bc040	-0.04974389
95	0xbdb2721c	-0.08713171
96	0xbca799ca	-0.020459075
97	0xbc00aa86	-0.007853156
98	0x3cfcea4c	0.03087344
99	0xbe3ec64a	-0.18630329
100	0xbdddcb91	-0.10829843
101	0x3c5a4bc6	0.01332373
102	0xbd85ed0b	-0.06539353
103	0xbe4331e2	-0.19061998
104	0xbc3bd346	-0.011463946
105	0xbe230e41	-0.15923406
106	0xbd42e401	-0.047580723
107	0x3dd0e29a	0.10199471
108	0x3d272c4a	0.04081372
109	0x3c5dcaaa	0.013537088
110	0x3d076902	0.033059128
111	0x3c3b8554	0.011445362
112	0xbdab1758	-0.08354062
113	0xbd8da802	-0.069168106
114	0x3de724a0	0.112862825
115	0xbd600845	-0.054695386
116	0x3d22c767	0.039740946
117	0x3d72e9ad	0.05930488
118	0xbda0d8c6	-0.07853846
119	0x3d6b8cb9	0.05750725
120	0x3ce02849	0.02736296
121	0xbc611a95	-0.013739248
122	0xbda51cce	-0.08062135
123	0xbd97e0c1	-0.07415915
124	0xba178985	-0.0005780685
125	0x3d723a51	0.059137646
126	0xbcce5a4d	-0.025189543
127	0xbd62cd09	-0.055371318
128	0xbdb0d324	-0.08634022
129	0xbbc0cb62	-0.00588362
130	0xbd79f69d	-0.061026204
131	0xbd74e165	-0.059785265
132	0xbd1b337a	-0.03789089
133	0xbea23e64	-0.31688225
134	0x3cd9c0e1	0.02658123
135	0xbd9d11da	-0.076694205
136	0x3d2bf245	0.041979093
137	0xbd81debe	-0.06341313
138	0xbd649618	-0.055807203
139	0xbd416c52	-0.047222443
140	0x3c60fa2c	0.013731521
141	0x3db5a6cd	0.08869705
142	0xbcaeedc6	-0.021353614
143	0x3d941751	0.0723101
144	0xb831f198	-4.242509e-05
145	0xbc73e675	-0.014886488
146	0x3d6fd879	0.058556054
147	0x3d0baf67	0.034102824
148	0xbaea7338	-0.0017887121
149	0xbdba458a	-0.09095295
150	0xbde50330	-0.111822486
151	0xbd6e03a9	-0.05810896
152	0xbbdb58bc	-0.0066939276
153	0xbb6ebad7	-0.0036427283
154	0x3d8278cc	0.063706964
155	0x3e4b62aa	0.19861856
156	0x3cb2e201	0.021836283
157	0xbdd00951	-0.10158027
158	0x3c8b8d05	0.017035017
159	0x3dda3467	0.10654526
160	0x3de066b8	0.10957092
161	0x3ced0f8f	0.028938083
162	0x3debf01e	0.11520408
163	0x3dbd277a	0.09236045
164	0xbbe0ab4a	-0.0068563567
165	0xbd7af935	-0.06127282
166	0x3c4a5a40	0.012350619
167	0x3cd3d234	0.025857069
168	0x3cd6a39b	0.02620106
169	0x3c002cd6	0.00782319
170	0x3dc0d254	0.09415117
171	0x3de5ef4d	0.112272836
172	0x3cf471e2	0.02983946
173	0xbe41d666	-0.18929443
174	0xbe534551	-0.20631911
175	0xbcc6d1af	-0.024269907
176	0xbd2a79ce	-0.04162007
177	0xbd1e2a04	-0.038614288
178	0xbd9c0c40	-0.07619524
179	0x3e4c01c5	0.1992255
180	0x3dde2880	0.108475685
181	0xbd5ceba9	-0.05393568
182	0x3d2a68fd	0.04160403
183	0xbe115e80	-0.14196205
184	0x3d7c278c	0.061561152
185	0x3d4bd2c4	0.04976155
186	0xbdae1463	-0.08499982
187	0xbde16ad8	-0.11006707
188	0xbc408790	-0.011751071
189	0xbd6b7786	-0.057487033
190	0xbd1653fb	-0.036701184
191	0x3ce37484	0.02776552
192	0xbe7b4948	-0.24539673
193	0x3dbd7455	0.09250704
194	0xbe98766a	-0.29777843
195	0xbce6ab4a	-0.028157849
196	0x3bd9f632	0.006651663
197	0x3de0f847	0.10984855
198	0x3b3e50bb	0.0029039818
199	0x3dc3c51e	0.095590815
200	0x3d52a473	0.051426362
201	0x3e0730a5	0.1320215
202	0xbd91b00c	-0.071136564
203	0x3cc36d96	0.023855966
204	0x3cbc10fe	0.022957321
205	0x3d3ed3dd	0.046588767
206	0xbcf82c8e	-0.030294683
207	0x3c9dcc6e	0.019262519
208	0x3e0158fc	0.12631601
209	0x3daf1c47	0.08550315
210	0xbd99ed65	-0.075159825
211	0xbd686baa	-0.0567433
212	0x3ce56bd3	0.028005516
213	0x3d8d193c	0.06889579
214	0x3dd309d1	0.10304607
215	0xbd940c15	-0.07228867
216	0xbdce4927	-0.100725465
217	0x3c5dfa73	0.013548481
218	0xbd862ef7	-0.065519266
219	0xbcf63655	-0.030055204
220	0x3c9a5e41	0.018843772
221	0x3d16e91c	0.036843404
222	0x3b3642b0	0.0027810745
223	0x3b468e59	0.0030297248
224	0x3b130a75	0.0022436653
225	0x3bc0e998	0.0058872215
226	0x3c93a9e3	0.018025344
227	0xbe04b6c4	-0.12960345
228	0x3a08f6b9	0.0005224753
229	0xbe42cf10	-0.190243
230	0x3d9acb4f	0.07558309
231	0x3c330f64	0.010928962
232	0x3d1587f3	0.036506604
233	0x3df72289	0.12067134
234	0x3c2ea3a1	0.010659129
235	0xbb8b3a1a	-0.0042488696
236	0x3d2d3ce3	0.042294394
237	0xbc2fcdfa	-0.010730261
238	0x3c933480	0.01796937
239	0x3cfe0eb3	0.031012869
240	0x3deefe16	0.11669557
241	0x3cd177aa	0.025569756
242	0x3e1264cf	0.14296268
243	0xbd0a2925	-0.033730645
244	0xbb82d3f6	-0.003992553
245	0x3dab949e	0.08377956
246	0xbdc3ad9f	-0.095546
247	0x3cdef570	0.027216643
248	0x3cbf1f63	0.023330396
249	0xbb72b4a0	-0.003703393
250	0x3d748ade	0.059702747
251	0xbd0c8b8a	-0.034312762
252	0x3e09092c	0.13382405
253	0xbbd2ed69	-0.006436993
254	0xbd17900f	-0.03700262
255	0xbddbbfb8	-0.10729927

conv3.lin.weight f4 [128, 128]
0	0x3d96bd51	0.07360328
1	0x3c2bd499	0.010487699
2	0xbdb1ef1a	-0.08688183
3	0x3b26f604	0.0025476227
4	0x3c261e74	0.0101390965
5	0x3c23617d	0.0099719735
6	0x3dfbacc0	0.12288809
7	0x3e3ebc37	0.18626486
8	0x3dc09a16	0.094043896
9	0xbc9d36fb	-0.019191256
10	0x3b9873f0	0.0046524927
11	0xbdd25d80	-0.1027174
12	0xbd28eed1	-0.041243378
13	0x3b545a70	0.0032402538
14	0x3d165cde	0.03670966
15	0x3d52fadb	0.051508766
16	0x3db6a0b6	0.08917372
17	0x3d350c50	0.044201195
18	0x3d5d4819	0.054023836
19	0xbd4f8efe	-0.050673477
20	0x3de5acbb	0.11214586
21	0x3ca53536	0.020166975
22	0x3b9870c1	0.004652113
23	0x3d582d74	0.052777722
24	0x3d006a00	0.03135109
25	0x3d88c4b2	0.06678142
26	0xbccd36b2	-0.025050495
27	0xbe44a688	-0.19204152
28	0xbd611d8d	-0.054959822
29	0xbcf7ab35	-0.030233005
30	0x3c81e4f0	0.015856236
31	0xbe03a290	-0.12854981
32	0xbd35ea03	-0.044412624
33	0x3c27784f	0.010221555
34	0x3d8e9069	0.06961138
35	0xbc07435c	-0.008255806
36	0xbdfbf193	-0.12301936
37	0x3d642ca5	0.05570664
38	0x3d66042c	0.056156322
39	0x3c6f7f4b	0.014617751
40	0x3cf454ff	0.029825686
41	0xbdb4789a	-0.088120654
42	0xbd02f8a3	-0.0319754
43	0x3d22b70d	0.039725352
44	0x3ca0255c	0.019549064
45	0xbdf8b0e1	-0.12143112
46	0x3d9bb729	0.076032944
47	0xbc9f65d8	-0.019457743
48	0xba876e71	-0.0010332597
49	0xbd6c80d1	-0.057740036
50	0x3cd7b80e	0.026332881
51	0xbd180073	-0.037109803
52	0xbdf36154	-0.11883798
53	0x3d681641	0.056661848
54	0x3dbab126	0.0911582
55	0x3d439fa8	0.047759682
56	0x3dc2aced	0.09505639
57	0xbc0f3497	-0.008740566
58	0x3ddfa704	0.109205276
59	0x3d006c17	0.031353083
60	0xbe0729b6	-0.13199505
61	0x3b27a052	0.0025577736
62	0xbdf6245e	-0.12018655
63	0xbd1a7b16	-0.03771504
64	0xbe25c911	-0.16189982
65	0xbcb97e59	-0.022643255
66	0x3d797db0	0.06091088
67	0xbd5a9295	-0.053362448
68	0x3e24e42e	0.16102669
69	0xbdfb7fe8	-0.122802556
70	0x3d90bab2	0.07066859
71	0xbdbb44b2	-0.09143962
72	0xbc42fd14	-0.011901159
73	0xbc7d8d72	-0.015475618
74	0x3d73d22b	0.059526604
75	0x3cb7ac30	0.022420973
76	0x3da78728	0.08180076
77	0xb941c82b	-0.00018480483
78	0x3cd21e95	0.025649348
79	0xbd7641fc	-0.06012152
80	0x3defdef9	0.117124505
81	0x3e325bf2	0.17417887
82	0xbdda1592	-0.106486455
83	0xbd795baf	-0.060878452
84	0xbe3b9e87	-0.18322192
85	0x3d826727	0.06367331
86	0xbd5af305	-0.053454418
87	0x3d3fdd6f	0.046842035
88	0x3d70ab5c	0.05875717
89	0x3c120de9	0.008914449
90	0xbd9be840	-0.076126575
91	0xbcd56769	-0.026050286
92	0x3d76f69e	0.060293786
93	0x3cb3c02b	0.021942219
94	0x3ca35026	0.019935679
95	0x3cddcb69	0.027074533
96	0xbd8e6e00	-0.069545746
97	0x3df0726e	0.11740576
98	0xbe340b7f	-0.1758251
99	0xbd800a5d	-0.06251977
100	0x3d54ba9c	0.051935777
101	0xbb6683b7	-0.0035173723
102	0xbd3e245d	-0.046421397
103	0xbe2c7646	-0.16841993
104	0xbd80e81b	-0.062942706
105	0xbd95de6b	-0.073178135
106	0x3d83b5a3	0.06431129
107	0x3d1353b3	0.035968494
108	0x3dfa8d25	0.122339524
109	0x3d697eb9	0.057005618
110	0xbd614ddd	-0.055005897
111	0xbd32de5e	-0.043669097
112	0x3d8e9483	0.0696192
113	0x3dac00c6	0.08398585
114	0xbdd9f659	-0.1064269
115	0x3de7ae8e	0.113125905
116	0x3b531d11	0.003221337
117	0x3e07206d	0.13195963
118	0x3dbd765c	0.09251091
119	0x3d4387e4	0.047737017
120	0xbdf81932	-0.121141806
121	0x3e3fed88	0.18742955
122	0x3d909b99	0.07060928
123	0x3aef3081	0.0018248708
124	0xbe272417	-0.16322361
125	0x3d68b096	0.05680903
126	0x3d77987c	0.060448155
127	0x3d0cde6a	0.034391798
128	0x3d757114	0.059922293
129	0x3da32009	0.079650946
130	0xbe117e9b	-0.14208452
131	0xbb8ef970	-0.0043632314
132	0xbd0059fb	-0.031335812
133	0xbc2e2254	-0.010628302
134	0xbccb243a	-0.024797548
135	0x3d1bda59	0.03805003
136	0x3d2e8ce2	0.042614825
137	0xbd9bda4d	-0.07609997
138	0x3c4036c6	0.011731809
139	0x3afacb24	0.0019134027
140	0xbd764fbc	-0.060134634
141	0xbdb8095a	-0.08986159
142	0x3cecae70	0.028891772
143	0xbe0cadde	-0.137382
144	0xbdd15286	-0.10220818
145	0xbe25b688	-0.16182911
146	0xbd4e0443	-0.050297033
147	0x3d92e5fe	0.07172774
148	0xbd293de7	-0.0413188
149	0xbe5fdb19	-0.21860923
150	0xbcc4a015	-0.024002114
151	0x3d9d27bf	0.076735966
152	0x3d1fe924	0.0390407
153	0x3d83ac93	0.064294
154	0x3d61fe30	0.055174053
155	0xbd12a955	-0.03580602
156	0xbb0bbc9b	-0.0021322134
157	0xbc15ba1f	-0.009138613
158	0x395f3200	0.00021285564
159	0xbe17b6a7	-0.1481577
160	0x3cd5b93a	0.0260893
161	0xbd5936f9	-0.05303094
162	0x3d91f9f4	0.07127753
163	0xbdb1694e	-0.086626634
164	0xbd4e7f1f	-0.0504142
165	0x3dd32e7b	0.103116
166	0xbd711a3c	-0.05886291
167	0xbe041ab8	-0.12900817
168	0x3d80bc25	0.06285886
169	0xbcd8a72d	-0.026446903
170	0xbe082377	-0.13294779
171	0xbdd23718	-0.102644145
172	0xbd7697be	-0.060203306
173	0xbd80cf7c	-0.062895745
174	0xbd8e6f9d	-0.06954882
175	0x3d1d36c7	0.038382318
176	0xbde79c8f	-0.11309158
177	0xbe38394c	-0.17990607
178	0x3dc9ea5a	0.09859152
179	0xbd500ef7	-0.05079552
180	0xbd9ce978	-0.07661718
181	0xbc012736	-0.007882884
182	0x3b85d1e6	0.0040838597
183	0xbdee39fc	-0.116321534
184	0xbdb44e3e	-0.08803986
185	0x3b437877	0.0029826441
186	0xbde51761	-0.111861
187	0x3d256a4c	0.040384576
188	0x3d8f6142	0.07000972
189	0xbdc39914	-0.09550682
190	0x3e216942	0.15762809
191	0xbce7db4a	-0.028302807
192	0xbda7f71a	-0.08201428
193	0x3d62916b	0.055314463
194	0x3d7dbb8d	0.06194644
195	0x3ca31680	0.01990819
196	0x3dbe8eae	0.09304558
197	0xbdd6175d	-0.10453675
198	0xbe1c2c14	-0.1525119
199	0x3bd31a74	0.0064423624
200	0x3bd4472a	0.00647821
201	0x3ca570a7	0.020195318
202	0xbdd8ec96	-0.10592
203	0x3a40da0e	0.00073567114
204	0x3c6e150f	0.014531388
205	0xbd79f3b2	-0.06102342
206	0xbd7a5944	-0.061120287
207	0x3d6c8a0e	0.057748847
208	0x3c94eebe	0.018180247
209	0xbc557311	-0.013027922
210	0xbda6a71b	-0.081373416
211	0xbd8f3dd0	-0.06994212
212	0xbcc18c3a	-0.023626436
213	0x3d4cfc3c	0.050045237
214	0xbd829fd0	-0.06378138
215	0xbdbdc7e9	-0.092666455
216	0xbd1390a7	-0.036026623
217	0x3da332df	0.07968687
218	0xbdb70f4b	-0.08938464
219	0xbe00b0dd	-0.12567468
220	0xbdab317e	-0.08359049
221	0x3baeb11a	0.0053311707
222	0xbc78478f	-0.01515378
223	0xbdbbe099	-0.09173698
224	0xbdd0fd9d	-0.10204623
225	0xbd6cd641	-0.057821516
226	0x3d433f48	0.04766777
227	0xbd3d7bb8	-0.046260566
228	0x3e07e449	0.13270678
229	0xbd72fa59	-0.05932078
230	0x3c2e0200	0.010620594
231	0xbda08a34	-0.0783886
232	0xbdca7e8e	-0.0988742
233	0x3d3a69d5	0.045511086
234	0xbb5a0a27	-0.0033270211
235	0xbcdd2d3d	-0.02699911
236	0xbc573f9d	-0.013137725
237	0x3da449f5	0.08021919
238	0x3dde784e	0.1086279
239	0xbc27367d	-0.010205862
240	0xbc409d3b	-0.011756237
241	0x3d46df02	0.04855252
242	0xbd68deb2	-0.056853004
243	0xbb1b14c9	-0.0023663512
244	0x3dd80285	0.105473556
245	0xbda1cd99	-0.07900543
246	0xb9fdfc69	-0.0004844398
247	0xbd538d32	-0.051648326
248	0x3ca85780	0.020549536
249	0xbd0b7131	-0.034043495
250	0xbd440fb5	-0.047866542
251	0x3d8beba8	0.06832057
252	0x3cfaa6f5	0.03059719
253	0x3c58ef44	0.013240639
254	0x3da2b038	0.07943767
255	0xbd964e8b	-0.073392
